{"config": {"input_layers": [["Input_1", 0, 0], ["Input_2", 0, 0]], "name": "model_1", "output_layers": [["Activation_14", 0, 0]], "layers": [{"config": {"name": "Input_2", "batch_input_shape": [null, 100, 150, 1], "dtype": "float32", "sparse": false}, "name": "Input_2", "class_name": "InputLayer", "inbound_nodes": []}, {"config": {"name": "Input_1", "batch_input_shape": [null, 100, 150, 1], "dtype": "float32", "sparse": false}, "name": "Input_1", "class_name": "InputLayer", "inbound_nodes": []}, {"config": {"axis": -1, "name": "concatenate_1", "trainable": true}, "name": "concatenate_1", "class_name": "Concatenate", "inbound_nodes": [[["Input_1", 0, 0, {}], ["Input_2", 0, 0, {}]]]}, {"config": {"target_shape": [2, 100, 150, 1], "name": "Reshape_1", "trainable": true}, "name": "Reshape_1", "class_name": "Reshape", "inbound_nodes": [[["concatenate_1", 0, 0, {}]]]}, {"config": {"bias_constraint": null, "dropout": 0.0, "filters": 32, "use_bias": true, "implementation": 0, "recurrent_initializer": {"config": {"gain": 1.0, "seed": null}, "class_name": "Orthogonal"}, "padding": "same", "data_format": "channels_last", "activity_regularizer": null, "bias_initializer": {"config": {}, "class_name": "Zeros"}, "recurrent_regularizer": null, "stateful": false, "unit_forget_bias": true, "unroll": false, "kernel_constraint": null, "recurrent_constraint": null, "strides": [2, 2], "trainable": true, "kernel_regularizer": null, "return_sequences": true, "go_backwards": false, "dilation_rate": [1, 1], "kernel_size": [5, 5], "name": "ConvLSTM2D_1", "bias_regularizer": null, "activation": "relu", "recurrent_dropout": 0.0, "return_state": false, "recurrent_activation": "hard_sigmoid", "kernel_initializer": {"config": {"distribution": "uniform", "scale": 1.0, "seed": null, "mode": "fan_avg"}, "class_name": "VarianceScaling"}}, "name": "ConvLSTM2D_1", "class_name": "ConvLSTM2D", "inbound_nodes": [[["Reshape_1", 0, 0, {}]]]}, {"config": {"trainable": true, "name": "Dropout_21", "seed": null, "rate": 0.2, "noise_shape": null}, "name": "Dropout_21", "class_name": "Dropout", "inbound_nodes": [[["ConvLSTM2D_1", 0, 0, {}]]]}, {"config": {"bias_constraint": null, "dropout": 0.0, "filters": 32, "use_bias": true, "implementation": 0, "recurrent_initializer": {"config": {"gain": 1.0, "seed": null}, "class_name": "Orthogonal"}, "padding": "valid", "data_format": "channels_last", "activity_regularizer": null, "bias_initializer": {"config": {}, "class_name": "Zeros"}, "recurrent_regularizer": null, "stateful": false, "unit_forget_bias": true, "unroll": false, "kernel_constraint": null, "recurrent_constraint": null, "strides": [2, 2], "trainable": true, "kernel_regularizer": null, "return_sequences": true, "go_backwards": false, "dilation_rate": [1, 1], "kernel_size": [5, 5], "name": "ConvLSTM2D_2", "bias_regularizer": null, "activation": "relu", "recurrent_dropout": 0.0, "return_state": false, "recurrent_activation": "hard_sigmoid", "kernel_initializer": {"config": {"distribution": "uniform", "scale": 1.0, "seed": null, "mode": "fan_avg"}, "class_name": "VarianceScaling"}}, "name": "ConvLSTM2D_2", "class_name": "ConvLSTM2D", "inbound_nodes": [[["Dropout_21", 0, 0, {}]]]}, {"config": {"trainable": true, "name": "Dropout_22", "seed": null, "rate": 0.2, "noise_shape": null}, "name": "Dropout_22", "class_name": "Dropout", "inbound_nodes": [[["ConvLSTM2D_2", 0, 0, {}]]]}, {"config": {"bias_constraint": null, "use_bias": true, "filters": 16, "strides": [1, 1], "trainable": true, "kernel_regularizer": null, "activation": "linear", "padding": "same", "dilation_rate": [1, 1], "kernel_size": [5, 5], "data_format": "channels_last", "name": "Convolution2D_11", "activity_regularizer": null, "bias_initializer": {"config": {}, "class_name": "Zeros"}, "kernel_constraint": null, "kernel_initializer": {"config": {"distribution": "uniform", "scale": 1.0, "seed": null, "mode": "fan_avg"}, "class_name": "VarianceScaling"}, "bias_regularizer": null}, "name": "Convolution2D_11", "class_name": "Conv2D", "inbound_nodes": [[["Input_2", 0, 0, {}]]]}, {"config": {"bias_constraint": null, "dropout": 0.0, "filters": 32, "use_bias": true, "implementation": 0, "recurrent_initializer": {"config": {"gain": 1.0, "seed": null}, "class_name": "Orthogonal"}, "padding": "same", "data_format": "channels_last", "activity_regularizer": null, "bias_initializer": {"config": {}, "class_name": "Zeros"}, "recurrent_regularizer": null, "stateful": false, "unit_forget_bias": true, "unroll": false, "kernel_constraint": null, "recurrent_constraint": null, "strides": [2, 2], "trainable": true, "kernel_regularizer": null, "return_sequences": false, "go_backwards": false, "dilation_rate": [1, 1], "kernel_size": [5, 5], "name": "ConvLSTM2D_3", "bias_regularizer": null, "activation": "relu", "recurrent_dropout": 0.0, "return_state": false, "recurrent_activation": "hard_sigmoid", "kernel_initializer": {"config": {"distribution": "uniform", "scale": 1.0, "seed": null, "mode": "fan_avg"}, "class_name": "VarianceScaling"}}, "name": "ConvLSTM2D_3", "class_name": "ConvLSTM2D", "inbound_nodes": [[["Dropout_22", 0, 0, {}]]]}, {"config": {"pool_size": [8, 8], "data_format": "channels_last", "name": "MaxPooling2D_3", "strides": [8, 8], "trainable": true, "padding": "valid"}, "name": "MaxPooling2D_3", "class_name": "MaxPooling2D", "inbound_nodes": [[["Convolution2D_11", 0, 0, {}]]]}, {"config": {"trainable": true, "name": "Dropout_23", "seed": null, "rate": 0.2, "noise_shape": null}, "name": "Dropout_23", "class_name": "Dropout", "inbound_nodes": [[["ConvLSTM2D_3", 0, 0, {}]]]}, {"config": {"axis": -1, "name": "concatenate_2", "trainable": true}, "name": "concatenate_2", "class_name": "Concatenate", "inbound_nodes": [[["MaxPooling2D_3", 0, 0, {}], ["Dropout_23", 0, 0, {}]]]}, {"config": {"scale": true, "center": true, "trainable": true, "gamma_regularizer": null, "beta_regularizer": null, "momentum": 0.99, "moving_mean_initializer": {"config": {}, "class_name": "Zeros"}, "beta_constraint": null, "epsilon": 0.001, "axis": -1, "name": "BatchNormalization_3", "gamma_initializer": {"config": {}, "class_name": "Ones"}, "beta_initializer": {"config": {}, "class_name": "Zeros"}, "moving_variance_initializer": {"config": {}, "class_name": "Ones"}, "gamma_constraint": null}, "name": "BatchNormalization_3", "class_name": "BatchNormalization", "inbound_nodes": [[["concatenate_2", 0, 0, {}]]]}, {"config": {"activation": "relu", "name": "Activation_3", "trainable": true}, "name": "Activation_3", "class_name": "Activation", "inbound_nodes": [[["BatchNormalization_3", 0, 0, {}]]]}, {"config": {"bias_constraint": null, "use_bias": true, "filters": 64, "strides": [1, 1], "trainable": true, "kernel_regularizer": null, "activation": "linear", "padding": "same", "dilation_rate": [1, 1], "kernel_size": [1, 1], "data_format": "channels_last", "name": "Convolution2D_12", "activity_regularizer": null, "bias_initializer": {"config": {}, "class_name": "Zeros"}, "kernel_constraint": null, "kernel_initializer": {"config": {"distribution": "uniform", "scale": 1.0, "seed": null, "mode": "fan_avg"}, "class_name": "VarianceScaling"}, "bias_regularizer": null}, "name": "Convolution2D_12", "class_name": "Conv2D", "inbound_nodes": [[["Activation_3", 0, 0, {}]]]}, {"config": {"scale": true, "center": true, "trainable": true, "gamma_regularizer": null, "beta_regularizer": null, "momentum": 0.99, "moving_mean_initializer": {"config": {}, "class_name": "Zeros"}, "beta_constraint": null, "epsilon": 0.001, "axis": -1, "name": "BatchNormalization_4", "gamma_initializer": {"config": {}, "class_name": "Ones"}, "beta_initializer": {"config": {}, "class_name": "Zeros"}, "moving_variance_initializer": {"config": {}, "class_name": "Ones"}, "gamma_constraint": null}, "name": "BatchNormalization_4", "class_name": "BatchNormalization", "inbound_nodes": [[["Convolution2D_12", 0, 0, {}]]]}, {"config": {"activation": "relu", "name": "Activation_4", "trainable": true}, "name": "Activation_4", "class_name": "Activation", "inbound_nodes": [[["BatchNormalization_4", 0, 0, {}]]]}, {"config": {"bias_constraint": null, "use_bias": true, "filters": 16, "strides": [1, 1], "trainable": true, "kernel_regularizer": null, "activation": "linear", "padding": "same", "dilation_rate": [1, 1], "kernel_size": [5, 5], "data_format": "channels_last", "name": "Convolution2D_13", "activity_regularizer": null, "bias_initializer": {"config": {}, "class_name": "Zeros"}, "kernel_constraint": null, "kernel_initializer": {"config": {"distribution": "uniform", "scale": 1.0, "seed": null, "mode": "fan_avg"}, "class_name": "VarianceScaling"}, "bias_regularizer": null}, "name": "Convolution2D_13", "class_name": "Conv2D", "inbound_nodes": [[["Activation_4", 0, 0, {}]]]}, {"config": {"trainable": true, "name": "Dropout_9", "seed": null, "rate": 0.2, "noise_shape": null}, "name": "Dropout_9", "class_name": "Dropout", "inbound_nodes": [[["Convolution2D_13", 0, 0, {}]]]}, {"config": {"axis": -1, "name": "concatenate_3", "trainable": true}, "name": "concatenate_3", "class_name": "Concatenate", "inbound_nodes": [[["Dropout_9", 0, 0, {}], ["concatenate_2", 0, 0, {}]]]}, {"config": {"scale": true, "center": true, "trainable": true, "gamma_regularizer": null, "beta_regularizer": null, "momentum": 0.99, "moving_mean_initializer": {"config": {}, "class_name": "Zeros"}, "beta_constraint": null, "epsilon": 0.001, "axis": -1, "name": "BatchNormalization_5", "gamma_initializer": {"config": {}, "class_name": "Ones"}, "beta_initializer": {"config": {}, "class_name": "Zeros"}, "moving_variance_initializer": {"config": {}, "class_name": "Ones"}, "gamma_constraint": null}, "name": "BatchNormalization_5", "class_name": "BatchNormalization", "inbound_nodes": [[["concatenate_3", 0, 0, {}]]]}, {"config": {"activation": "relu", "name": "Activation_5", "trainable": true}, "name": "Activation_5", "class_name": "Activation", "inbound_nodes": [[["BatchNormalization_5", 0, 0, {}]]]}, {"config": {"bias_constraint": null, "use_bias": true, "filters": 64, "strides": [1, 1], "trainable": true, "kernel_regularizer": null, "activation": "linear", "padding": "same", "dilation_rate": [1, 1], "kernel_size": [1, 1], "data_format": "channels_last", "name": "Convolution2D_14", "activity_regularizer": null, "bias_initializer": {"config": {}, "class_name": "Zeros"}, "kernel_constraint": null, "kernel_initializer": {"config": {"distribution": "uniform", "scale": 1.0, "seed": null, "mode": "fan_avg"}, "class_name": "VarianceScaling"}, "bias_regularizer": null}, "name": "Convolution2D_14", "class_name": "Conv2D", "inbound_nodes": [[["Activation_5", 0, 0, {}]]]}, {"config": {"scale": true, "center": true, "trainable": true, "gamma_regularizer": null, "beta_regularizer": null, "momentum": 0.99, "moving_mean_initializer": {"config": {}, "class_name": "Zeros"}, "beta_constraint": null, "epsilon": 0.001, "axis": -1, "name": "BatchNormalization_6", "gamma_initializer": {"config": {}, "class_name": "Ones"}, "beta_initializer": {"config": {}, "class_name": "Zeros"}, "moving_variance_initializer": {"config": {}, "class_name": "Ones"}, "gamma_constraint": null}, "name": "BatchNormalization_6", "class_name": "BatchNormalization", "inbound_nodes": [[["Convolution2D_14", 0, 0, {}]]]}, {"config": {"activation": "relu", "name": "Activation_6", "trainable": true}, "name": "Activation_6", "class_name": "Activation", "inbound_nodes": [[["BatchNormalization_6", 0, 0, {}]]]}, {"config": {"bias_constraint": null, "use_bias": true, "filters": 16, "strides": [1, 1], "trainable": true, "kernel_regularizer": null, "activation": "linear", "padding": "same", "dilation_rate": [1, 1], "kernel_size": [5, 5], "data_format": "channels_last", "name": "Convolution2D_15", "activity_regularizer": null, "bias_initializer": {"config": {}, "class_name": "Zeros"}, "kernel_constraint": null, "kernel_initializer": {"config": {"distribution": "uniform", "scale": 1.0, "seed": null, "mode": "fan_avg"}, "class_name": "VarianceScaling"}, "bias_regularizer": null}, "name": "Convolution2D_15", "class_name": "Conv2D", "inbound_nodes": [[["Activation_6", 0, 0, {}]]]}, {"config": {"trainable": true, "name": "Dropout_10", "seed": null, "rate": 0.2, "noise_shape": null}, "name": "Dropout_10", "class_name": "Dropout", "inbound_nodes": [[["Convolution2D_15", 0, 0, {}]]]}, {"config": {"axis": -1, "name": "concatenate_4", "trainable": true}, "name": "concatenate_4", "class_name": "Concatenate", "inbound_nodes": [[["Dropout_10", 0, 0, {}], ["concatenate_3", 0, 0, {}]]]}, {"config": {"scale": true, "center": true, "trainable": true, "gamma_regularizer": null, "beta_regularizer": null, "momentum": 0.99, "moving_mean_initializer": {"config": {}, "class_name": "Zeros"}, "beta_constraint": null, "epsilon": 0.001, "axis": -1, "name": "BatchNormalization_7", "gamma_initializer": {"config": {}, "class_name": "Ones"}, "beta_initializer": {"config": {}, "class_name": "Zeros"}, "moving_variance_initializer": {"config": {}, "class_name": "Ones"}, "gamma_constraint": null}, "name": "BatchNormalization_7", "class_name": "BatchNormalization", "inbound_nodes": [[["concatenate_4", 0, 0, {}]]]}, {"config": {"activation": "relu", "name": "Activation_7", "trainable": true}, "name": "Activation_7", "class_name": "Activation", "inbound_nodes": [[["BatchNormalization_7", 0, 0, {}]]]}, {"config": {"bias_constraint": null, "use_bias": true, "filters": 64, "strides": [1, 1], "trainable": true, "kernel_regularizer": null, "activation": "linear", "padding": "same", "dilation_rate": [1, 1], "kernel_size": [1, 1], "data_format": "channels_last", "name": "Convolution2D_16", "activity_regularizer": null, "bias_initializer": {"config": {}, "class_name": "Zeros"}, "kernel_constraint": null, "kernel_initializer": {"config": {"distribution": "uniform", "scale": 1.0, "seed": null, "mode": "fan_avg"}, "class_name": "VarianceScaling"}, "bias_regularizer": null}, "name": "Convolution2D_16", "class_name": "Conv2D", "inbound_nodes": [[["Activation_7", 0, 0, {}]]]}, {"config": {"scale": true, "center": true, "trainable": true, "gamma_regularizer": null, "beta_regularizer": null, "momentum": 0.99, "moving_mean_initializer": {"config": {}, "class_name": "Zeros"}, "beta_constraint": null, "epsilon": 0.001, "axis": -1, "name": "BatchNormalization_8", "gamma_initializer": {"config": {}, "class_name": "Ones"}, "beta_initializer": {"config": {}, "class_name": "Zeros"}, "moving_variance_initializer": {"config": {}, "class_name": "Ones"}, "gamma_constraint": null}, "name": "BatchNormalization_8", "class_name": "BatchNormalization", "inbound_nodes": [[["Convolution2D_16", 0, 0, {}]]]}, {"config": {"activation": "relu", "name": "Activation_8", "trainable": true}, "name": "Activation_8", "class_name": "Activation", "inbound_nodes": [[["BatchNormalization_8", 0, 0, {}]]]}, {"config": {"bias_constraint": null, "use_bias": true, "filters": 16, "strides": [1, 1], "trainable": true, "kernel_regularizer": null, "activation": "linear", "padding": "same", "dilation_rate": [1, 1], "kernel_size": [5, 5], "data_format": "channels_last", "name": "Convolution2D_17", "activity_regularizer": null, "bias_initializer": {"config": {}, "class_name": "Zeros"}, "kernel_constraint": null, "kernel_initializer": {"config": {"distribution": "uniform", "scale": 1.0, "seed": null, "mode": "fan_avg"}, "class_name": "VarianceScaling"}, "bias_regularizer": null}, "name": "Convolution2D_17", "class_name": "Conv2D", "inbound_nodes": [[["Activation_8", 0, 0, {}]]]}, {"config": {"trainable": true, "name": "Dropout_11", "seed": null, "rate": 0.2, "noise_shape": null}, "name": "Dropout_11", "class_name": "Dropout", "inbound_nodes": [[["Convolution2D_17", 0, 0, {}]]]}, {"config": {"axis": -1, "name": "concatenate_5", "trainable": true}, "name": "concatenate_5", "class_name": "Concatenate", "inbound_nodes": [[["Dropout_11", 0, 0, {}], ["concatenate_4", 0, 0, {}]]]}, {"config": {"scale": true, "center": true, "trainable": true, "gamma_regularizer": null, "beta_regularizer": null, "momentum": 0.99, "moving_mean_initializer": {"config": {}, "class_name": "Zeros"}, "beta_constraint": null, "epsilon": 0.001, "axis": -1, "name": "BatchNormalization_9", "gamma_initializer": {"config": {}, "class_name": "Ones"}, "beta_initializer": {"config": {}, "class_name": "Zeros"}, "moving_variance_initializer": {"config": {}, "class_name": "Ones"}, "gamma_constraint": null}, "name": "BatchNormalization_9", "class_name": "BatchNormalization", "inbound_nodes": [[["concatenate_5", 0, 0, {}]]]}, {"config": {"activation": "relu", "name": "Activation_9", "trainable": true}, "name": "Activation_9", "class_name": "Activation", "inbound_nodes": [[["BatchNormalization_9", 0, 0, {}]]]}, {"config": {"bias_constraint": null, "use_bias": true, "filters": 64, "strides": [1, 1], "trainable": true, "kernel_regularizer": null, "activation": "linear", "padding": "same", "dilation_rate": [1, 1], "kernel_size": [1, 1], "data_format": "channels_last", "name": "Convolution2D_18", "activity_regularizer": null, "bias_initializer": {"config": {}, "class_name": "Zeros"}, "kernel_constraint": null, "kernel_initializer": {"config": {"distribution": "uniform", "scale": 1.0, "seed": null, "mode": "fan_avg"}, "class_name": "VarianceScaling"}, "bias_regularizer": null}, "name": "Convolution2D_18", "class_name": "Conv2D", "inbound_nodes": [[["Activation_9", 0, 0, {}]]]}, {"config": {"scale": true, "center": true, "trainable": true, "gamma_regularizer": null, "beta_regularizer": null, "momentum": 0.99, "moving_mean_initializer": {"config": {}, "class_name": "Zeros"}, "beta_constraint": null, "epsilon": 0.001, "axis": -1, "name": "BatchNormalization_10", "gamma_initializer": {"config": {}, "class_name": "Ones"}, "beta_initializer": {"config": {}, "class_name": "Zeros"}, "moving_variance_initializer": {"config": {}, "class_name": "Ones"}, "gamma_constraint": null}, "name": "BatchNormalization_10", "class_name": "BatchNormalization", "inbound_nodes": [[["Convolution2D_18", 0, 0, {}]]]}, {"config": {"activation": "relu", "name": "Activation_10", "trainable": true}, "name": "Activation_10", "class_name": "Activation", "inbound_nodes": [[["BatchNormalization_10", 0, 0, {}]]]}, {"config": {"bias_constraint": null, "use_bias": true, "filters": 16, "strides": [1, 1], "trainable": true, "kernel_regularizer": null, "activation": "linear", "padding": "same", "dilation_rate": [1, 1], "kernel_size": [5, 5], "data_format": "channels_last", "name": "Convolution2D_19", "activity_regularizer": null, "bias_initializer": {"config": {}, "class_name": "Zeros"}, "kernel_constraint": null, "kernel_initializer": {"config": {"distribution": "uniform", "scale": 1.0, "seed": null, "mode": "fan_avg"}, "class_name": "VarianceScaling"}, "bias_regularizer": null}, "name": "Convolution2D_19", "class_name": "Conv2D", "inbound_nodes": [[["Activation_10", 0, 0, {}]]]}, {"config": {"trainable": true, "name": "Dropout_12", "seed": null, "rate": 0.2, "noise_shape": null}, "name": "Dropout_12", "class_name": "Dropout", "inbound_nodes": [[["Convolution2D_19", 0, 0, {}]]]}, {"config": {"axis": -1, "name": "concatenate_6", "trainable": true}, "name": "concatenate_6", "class_name": "Concatenate", "inbound_nodes": [[["Dropout_12", 0, 0, {}], ["concatenate_5", 0, 0, {}]]]}, {"config": {"scale": true, "center": true, "trainable": true, "gamma_regularizer": null, "beta_regularizer": null, "momentum": 0.99, "moving_mean_initializer": {"config": {}, "class_name": "Zeros"}, "beta_constraint": null, "epsilon": 0.001, "axis": -1, "name": "BatchNormalization_11", "gamma_initializer": {"config": {}, "class_name": "Ones"}, "beta_initializer": {"config": {}, "class_name": "Zeros"}, "moving_variance_initializer": {"config": {}, "class_name": "Ones"}, "gamma_constraint": null}, "name": "BatchNormalization_11", "class_name": "BatchNormalization", "inbound_nodes": [[["concatenate_6", 0, 0, {}]]]}, {"config": {"activation": "relu", "name": "Activation_11", "trainable": true}, "name": "Activation_11", "class_name": "Activation", "inbound_nodes": [[["BatchNormalization_11", 0, 0, {}]]]}, {"config": {"bias_constraint": null, "use_bias": true, "filters": 32, "strides": [1, 1], "trainable": true, "kernel_regularizer": null, "activation": "linear", "padding": "same", "dilation_rate": [1, 1], "kernel_size": [1, 1], "data_format": "channels_last", "name": "Convolution2D_20", "activity_regularizer": null, "bias_initializer": {"config": {}, "class_name": "Zeros"}, "kernel_constraint": null, "kernel_initializer": {"config": {"distribution": "uniform", "scale": 1.0, "seed": null, "mode": "fan_avg"}, "class_name": "VarianceScaling"}, "bias_regularizer": null}, "name": "Convolution2D_20", "class_name": "Conv2D", "inbound_nodes": [[["Activation_11", 0, 0, {}]]]}, {"config": {"data_format": "channels_last", "name": "UpSampling2D_1", "size": [8, 8], "trainable": true}, "name": "UpSampling2D_1", "class_name": "UpSampling2D", "inbound_nodes": [[["Convolution2D_20", 0, 0, {}]]]}, {"config": {"data_format": "channels_last", "name": "ZeroPadding2D_1", "padding": [[2, 2], [3, 3]], "trainable": true}, "name": "ZeroPadding2D_1", "class_name": "ZeroPadding2D", "inbound_nodes": [[["UpSampling2D_1", 0, 0, {}]]]}, {"config": {"bias_constraint": null, "use_bias": true, "filters": 1, "strides": [1, 1], "trainable": true, "kernel_regularizer": null, "activation": "linear", "padding": "same", "dilation_rate": [1, 1], "kernel_size": [5, 5], "data_format": "channels_last", "name": "Convolution2D_21", "activity_regularizer": null, "bias_initializer": {"config": {}, "class_name": "Zeros"}, "kernel_constraint": null, "kernel_initializer": {"config": {"distribution": "uniform", "scale": 1.0, "seed": null, "mode": "fan_avg"}, "class_name": "VarianceScaling"}, "bias_regularizer": null}, "name": "Convolution2D_21", "class_name": "Conv2D", "inbound_nodes": [[["Input_2", 0, 0, {}]]]}, {"config": {"axis": 3, "name": "concatenate_7", "trainable": true}, "name": "concatenate_7", "class_name": "Concatenate", "inbound_nodes": [[["ZeroPadding2D_1", 0, 0, {}], ["Convolution2D_21", 0, 0, {}]]]}, {"config": {"scale": true, "center": true, "trainable": true, "gamma_regularizer": null, "beta_regularizer": null, "momentum": 0.99, "moving_mean_initializer": {"config": {}, "class_name": "Zeros"}, "beta_constraint": null, "epsilon": 0.001, "axis": -1, "name": "BatchNormalization_12", "gamma_initializer": {"config": {}, "class_name": "Ones"}, "beta_initializer": {"config": {}, "class_name": "Zeros"}, "moving_variance_initializer": {"config": {}, "class_name": "Ones"}, "gamma_constraint": null}, "name": "BatchNormalization_12", "class_name": "BatchNormalization", "inbound_nodes": [[["concatenate_7", 0, 0, {}]]]}, {"config": {"activation": "relu", "name": "Activation_12", "trainable": true}, "name": "Activation_12", "class_name": "Activation", "inbound_nodes": [[["BatchNormalization_12", 0, 0, {}]]]}, {"config": {"bias_constraint": null, "use_bias": true, "filters": 16, "strides": [1, 1], "trainable": true, "kernel_regularizer": null, "activation": "linear", "padding": "same", "dilation_rate": [1, 1], "kernel_size": [5, 5], "data_format": "channels_last", "name": "Convolution2D_22", "activity_regularizer": null, "bias_initializer": {"config": {}, "class_name": "Zeros"}, "kernel_constraint": null, "kernel_initializer": {"config": {"distribution": "uniform", "scale": 1.0, "seed": null, "mode": "fan_avg"}, "class_name": "VarianceScaling"}, "bias_regularizer": null}, "name": "Convolution2D_22", "class_name": "Conv2D", "inbound_nodes": [[["Activation_12", 0, 0, {}]]]}, {"config": {"axis": 3, "name": "concatenate_8", "trainable": true}, "name": "concatenate_8", "class_name": "Concatenate", "inbound_nodes": [[["concatenate_7", 0, 0, {}], ["Convolution2D_22", 0, 0, {}]]]}, {"config": {"scale": true, "center": true, "trainable": true, "gamma_regularizer": null, "beta_regularizer": null, "momentum": 0.99, "moving_mean_initializer": {"config": {}, "class_name": "Zeros"}, "beta_constraint": null, "epsilon": 0.001, "axis": -1, "name": "BatchNormalization_13", "gamma_initializer": {"config": {}, "class_name": "Ones"}, "beta_initializer": {"config": {}, "class_name": "Zeros"}, "moving_variance_initializer": {"config": {}, "class_name": "Ones"}, "gamma_constraint": null}, "name": "BatchNormalization_13", "class_name": "BatchNormalization", "inbound_nodes": [[["concatenate_8", 0, 0, {}]]]}, {"config": {"activation": "relu", "name": "Activation_13", "trainable": true}, "name": "Activation_13", "class_name": "Activation", "inbound_nodes": [[["BatchNormalization_13", 0, 0, {}]]]}, {"config": {"bias_constraint": null, "use_bias": true, "filters": 1, "strides": [1, 1], "trainable": true, "kernel_regularizer": null, "activation": "linear", "padding": "same", "dilation_rate": [1, 1], "kernel_size": [9, 9], "data_format": "channels_last", "name": "Convolution2D_23", "activity_regularizer": null, "bias_initializer": {"config": {}, "class_name": "Zeros"}, "kernel_constraint": null, "kernel_initializer": {"config": {"distribution": "uniform", "scale": 1.0, "seed": null, "mode": "fan_avg"}, "class_name": "VarianceScaling"}, "bias_regularizer": null}, "name": "Convolution2D_23", "class_name": "Conv2D", "inbound_nodes": [[["Activation_13", 0, 0, {}]]]}, {"config": {"activation": "sigmoid", "name": "Activation_14", "trainable": true}, "name": "Activation_14", "class_name": "Activation", "inbound_nodes": [[["Convolution2D_23", 0, 0, {}]]]}]}, "backend": "tensorflow", "class_name": "Model", "keras_version": "2.1.2"}